best_model.pth (torch, 925365 bytes, 35 tensors)

enc1.0.weight f4 [32, 3, 3, 3]
000000 55 00 cf bd c9 98 54 3c 84 73 c2 bb 43 ca c4 3d
       -0.10107485 0.01297588 -0.0059341807 0.09608891
000010 ec 7b 06 be c0 b2 0b 3e 8f 2b 56 bd 98 4c 57 bd
       -0.1313321 0.13642406 -0.052287634 -0.05256328
000020 bb a8 35 3e 9b e0 b1 bd 82 aa 3f be 6b 4f 1b 3d
       0.17740147 -0.08685418 -0.18717387 0.037917536
000030 d8 cb 05 be 8b 2a 38 be 8a d4 7d bd 57 01 00 3e
       -0.13066041 -0.17984979 -0.06197027 0.12500511
000040 fc bf 17 bd 7f 41 80 bd 8f ec 38 bd 3f ee 11 be
       -0.037048325 -0.062624924 -0.045147475 -0.1425104
000050 0a 9a 6e bc d4 73 10 3e 27 2f d9 bd ef fc 3a bd
       -0.014563093 0.14106685 -0.10604697 -0.045651373
000060 9e 4c a8 3d 0b ca c2 3d 3e fd 29 3d 7b a6 16 be
       0.082177386 0.09511193 0.041501276 -0.14711945
000070 68 6a 39 3d 12 4d 31 be 32 3b c0 bd d7 19 85 3d
       0.045267493 -0.17314556 -0.093862906 0.06499069
000080 b4 c7 05 3e e3 6f 35 be ee 4e 5b 3d 9d 4f 10 3e
       0.13064462 -0.17718463 0.05354207 0.1409287
000090 d6 e4 90 3d 47 00 29 3e 65 f4 40 3e b9 ae 1d bd
       0.07074897 0.16504012 0.18843229 -0.038496707
0000a0 02 41 ac bd 92 a8 9f 3d 96 f2 35 3e 73 68 c3 bd
       -0.08410837 0.07795824 0.1776832 -0.095414065
0000b0 7b 59 df bd ce 38 39 3e b9 da 08 3e a7 86 11 be
       -0.10905739 0.18088076 0.13364686 -0.14211522
0000c0 08 8b ce bc c4 0d 3d be 36 ea 0e be e7 ab 2f 3e
       -0.02521278 -0.18462282 -0.13956532 0.1715542
0000d0 48 f0 32 be 8a 08 37 3e 8b 88 b9 3d 27 41 29 3e
       -0.17474473 0.17874351 0.09059247 0.1652876
0000e0 57 72 c6 3d 00 39 c8 3d 20 22 1f be 7d d0 64 3d
       0.09689777 0.09776497 -0.15540361 0.055862892
0000f0 12 02 52 bd c4 ab 23 be 82 b0 aa bd 64 b3 13 3d
       -0.051271506 -0.15983492 -0.083344474 0.036059752
000100 ad da b0 3d 5a f0 45 3e 27 74 37 be 13 ef b6 bd
       0.08635459 0.19329968 -0.17915402 -0.089323185
000110 d6 59 d5 bc 27 c0 40 bc c4 57 14 3e 6f 5d 05 bc
       -0.026043814 -0.011764563 0.14486605 -0.008139952
000120 45 75 76 3c 2e 36 9d 3d a5 f5 47 bc 96 b3 49 3d
       0.015042608 0.076763496 -0.012204562 0.049243532
000130 5d d3 b2 3d ec 4c 39 3e 02 65 ca 3d 4f 3b c4 3d
       0.087317206 0.1809575 0.09882547 0.09581625
000140 c8 ad 08 3e 83 dd 3d 3e f6 56 2a be 80 87 16 3c
       0.13347542 0.18541531 -0.16634735 0.009187579
000150 9b 0b 76 bc ce c3 e3 3d a4 20 59 3d 09 fb c0 3d
       -0.015017415 0.11121331 0.053009644 0.09422881
000160 04 5b 43 be aa ff 56 3d e8 6d 0e be 5b d1 26 be
       -0.19077688 0.052489914 -0.13909113 -0.162908
000170 5c 3a d5 3b 13 66 12 be c9 44 a8 bd 4c ac 0f 3d
       0.006507201 -0.1429675 -0.08216245 0.035076424
000180 c9 da 3c 3e 31 c4 e3 3d d3 09 67 bd d8 eb cd 3c
       0.18442835 0.11121405 -0.056405853 0.025136873
000190 3b d4 d4 3d d9 de 12 3c 7c cc 2f 3e 7e 24 1c 3e
       0.10392042 0.008964264 0.17167848 0.15248296
0001a0 f7 46 f3 bd 3f c4 64 bc 35 36 38 3e d4 54 43 3e
       -0.1187877 -0.013962804 0.17989428 0.19075328
0001b0 42 8d 26 3b bf 83 40 3e 26 e3 d7 3d 46 84 28 3e
       0.0025413786 0.18800257 0.10541372 0.16456708
0001c0 19 f0 f1 bd eb 8b 13 be 8a 75 4e 3d 61 f6 0f 3e
       -0.11813373 -0.14408843 0.050405063 0.1405883
0001d0 8d 30 85 3b 08 93 0d 3e f3 59 dc 3c 56 2f 09 3e
       0.0040646256 0.13825619 0.02689836 0.13396963
0001e0 39 fb 7c 3d d0 f1 b0 bb b6 be 1d bd f3 40 d1 bd
       0.061763022 -0.00539992 -0.038511954 -0.10217466
0001f0 0f 44 2b 3e 3e d9 1e bd bb 7e 2b be 23 2f 38 be
       0.16725181 -0.038781397 -0.16747563 -0.17986731
000200 8b 81 86 3d 7e 86 de 3d 32 73 5d 3d 20 83 29 3e
       0.06567677 0.10865496 0.054064937 0.16553926
000210 2a e1 df 3c 34 63 e4 3c b8 f0 22 bd 97 5c c6 3d
       0.027329046 0.027879335 -0.03978035 0.09685629
000220 dd 79 1f bd d8 9d 11 3e 6a cc c2 3d 10 7c 2f 3e
       -0.038934577 0.14220369 0.09511645 0.1713717
000230 7a d0 cd bd 02 cf 9f bd ba 18 c4 3c ee ab 9a 3d
       -0.100495294 -0.078031555 0.023937572 0.07552324
000240 0a 61 25 be 00 fa 24 3e c2 bf 9a bd e5 dc 7d 3d
       -0.16150299 0.16110992 -0.07556106 0.06197824
000250 08 cf 39 be 87 66 8c 3c e6 90 4b 3d 8c ac 24 3e
       -0.18145382 0.017138733 0.049698733 0.16081446
000260 52 9c b9 3d 74 dd 6c bd 55 52 35 3e cd 54 e3 3d
       0.09063019 -0.05782838 0.17707188 0.11100159
000270 7b c2 db 3d fa c0 25 3e 46 98 29 be 17 21 04 3d
       0.107304536 0.16186896 -0.16561994 0.03225812
000280 2a ee 74 bd 1d 84 3c 3e d8 fe 12 3d 98 48 ed bc
       -0.059797443 0.18409772 0.03588757 -0.02896528
000290 dc 8f 40 be 13 f9 3b 3e 13 60 1c be 5d 9c 21 3d
       -0.18804878 0.18356733 -0.15271024 0.03945576
0002a0 38 b5 66 3b 56 0f fc bd 87 9b 1e 3e 99 85 1e 3c
       0.003520323 -0.123076126 0.15489016 0.009675407
0002b0 09 27 36 be ba 39 35 bd a1 85 ac 3d 17 a5 d8 3d
       -0.17788328 -0.044244505 0.08423925 0.105783634
0002c0 0d 43 fb bc f0 59 25 be d6 f0 1c 3e d0 de b7 3d
       -0.03067162 -0.1614759 0.15326247 0.08978045
0002d0 56 6d bf bd 5e f4 21 bc 0e ca a8 bd b6 bf 99 3d
       -0.09347026 -0.009884922 -0.08241664 0.07507269
0002e0 6f a7 12 3e 28 9d 03 3e 90 61 16 be 37 47 17 3e
       0.14321683 0.12852919 -0.14685655 0.1477326
0002f0 37 1e 8d 3d 15 9f 9f 3d b2 de 1f 3d 4e 8d 57 bd
       0.06890529 0.07794014 0.03903074 -0.052624993
000300 d4 f8 2d 3e 06 10 b3 3c d9 ee 0f be e8 3f 21 3d
       0.16989452 0.021858227 -0.14055957 0.039367586
000310 ea 98 22 3e 31 08 63 3d 3f 35 8c bd 3b 8a 16 bc
       0.15878645 0.055427734 -0.068460934 -0.00918823
000320 1d f1 0e 3b 45 a7 27 3e e9 a4 2c be 47 53 e9 3c
       0.0021811195 0.16372402 -0.16859783 0.028482093
000330 24 93 c3 3d c5 f7 d4 3d be 69 20 3e f3 2b 3f 3e
       0.09549549 0.10398821 0.15665337 0.18669109
000340 3d db 2a bd 16 e8 12 3d d7 99 37 be 56 8b b7 bd
       -0.04171299 0.035865866 -0.17929779 -0.08962123
000350 81 d3 b7 3c cb c2 20 be af f7 f1 3d af 27 b0 bd
       0.02243972 -0.15699308 0.1181482 -0.08601319
000360 6c 14 f2 3d 46 fb 05 3e 0a 42 27 3e fc e2 a5 bd
       0.118203014 0.13084134 0.16333786 -0.080999345
000370 c8 f7 91 3d cf d1 89 3d e7 ac 67 3d 65 b7 12 3d
       0.07127339 0.06729471 0.056561377 0.03581943
000380 0e 3a 15 be 11 9a 0e be 62 93 dd 3d 7e e5 1c be
       -0.14572927 -0.13925959 0.10819127 -0.1532192
000390 46 ed b2 bc b5 e0 39 bd ec 4b 3b 3e 7e bc 88 3d
       -0.021841656 -0.045380313 0.1829068 0.06676577
0003a0 a9 c4 90 bd 1a 7c 9e bc 4f 70 a9 bd 9e f9 1a be
       -0.0706876 -0.019346286 -0.08273374 -0.15134284
0003b0 8d 11 30 3e ed b1 96 3d 58 2e 4f 3e 99 09 48 3e
       0.17194195 0.073581554 0.20232522 0.19534911
0003c0 a7 09 e3 ba 69 24 0d 3e 6c 6b a7 bd 66 57 9f 3d
       -0.0017321602 0.1378342 -0.08174786 0.07780342
0003d0 e0 7a 16 3e f5 c2 21 be 9d c0 e8 3d 62 6c a8 bd
       0.1469531 -0.15797026 0.11364863 -0.082237974
0003e0 eb 9f 2e 3e 46 e0 2d 3e ba 95 24 3e 07 fa 94 3d
       0.17053191 0.16980085 0.16072741 0.072742514
0003f0 7b 8c d0 bd 5c fa 93 3d 10 d0 b6 bd 0c 8f 0c be
       -0.101830445 0.07225487 -0.089264035 -0.13726443

enc1.0.bias f4 [32]
000000 0d 1f 95 3d cb 48 b2 3d 43 75 3e be 8c f1 31 3d
       0.07281313 0.087052904 -0.1859942 0.043443248
000010 fb 42 2f be e0 f9 21 3e 00 97 2b be e8 ef ec bc
       -0.17115395 0.15817976 -0.1675682 -0.02892299
000020 44 02 fb bc 96 31 85 bd 2d 94 d2 3c ea f9 08 be
       -0.030640729 -0.065035984 0.025705421 -0.13376585
000030 7d b0 af 3d 09 39 13 bd e3 eb 8d 3d a8 fe c5 bd
       0.08578584 -0.035943065 0.069297574 -0.096677125
000040 8b e9 16 3e e4 a0 bb bd 45 4a 20 bd 5e 48 ec bc
       0.14737527 -0.09161547 -0.03913333 -0.028843101
000050 33 08 ee 3d ae 44 3e 3e d7 e0 dc bd 37 99 96 3d
       0.116226576 0.18580887 -0.10785072 0.07353442
000060 2b d5 26 3d 68 e4 f8 3d 9f 57 93 3d b8 bc e2 bd
       0.040730637 0.1215294 0.07194447 -0.110711515
000070 31 71 95 3d 65 a7 01 be 7e ac d4 bd da 7f f8 3d
       0.0729698 -0.12661512 -0.10384463 0.12133761

enc1.1.weight f4 [32]
000000 e9 a9 7c 3f d1 b8 7d 3f 85 5f 80 3f 45 19 7f 3f
       0.9869676 0.9911013 1.002915 0.99647933
000010 7b c1 80 3f 1a 9a 7e 3f ba 98 7f 3f d3 1e 7f 3f
       1.0059046 0.9945389 0.9984242 0.9965641
000020 08 b1 80 3f 5e 5d 80 3f 92 65 80 3f ed 4c 7d 3f
       1.0054026 1.0028493 1.0030997 0.98945504
000030 4d 7d 80 3f ea 11 80 3f 4f 9e 81 3f f0 d2 7f 3f
       1.0038239 1.0005467 1.0126437 0.9993124
000040 f2 b2 80 3f 30 cb 7e 3f 85 56 81 3f 58 48 81 3f
       1.005461 0.9952879 1.0104529 1.0100203
000050 46 86 80 3f 80 21 7e 3f b5 56 80 3f 45 54 80 3f
       1.0040977 0.99269867 1.0026461 1.0025717
000060 8a 19 80 3f 79 29 81 3f 72 d6 80 3f fb ea 7d 3f
       1.0007794 1.0090781 1.0065444 0.99186677
000070 a4 3a 81 3f 2d 12 7f 3f e1 54 81 3f 75 3a 7f 3f
       1.0096021 0.9963711 1.0104028 0.99698573

enc1.1.bias f4 [32]
000000 95 48 49 bc 1b 35 fc bb d3 f7 20 3b fd 82 12 bb
       -0.012285371 -0.0076967604 0.0024561777 -0.0022355907
000010 d1 97 e3 3b 63 24 92 bb 02 68 61 3b f7 4c 8e ba
       0.006945588 -0.004459904 0.003439427 -0.0010856678
000020 62 d4 94 3b c2 43 84 3b 05 d8 98 3a 6c 58 39 bb
       0.0045419196 0.0040363977 0.0011661059 -0.0028281463
000030 53 99 ff 39 d2 da 9a 3b 2e 90 af 3b dd 69 99 3a
       0.00048751626 0.0047257924 0.0053577637 0.0011704523
000040 e1 3f 26 3c af 82 d8 3b 50 78 34 3c d6 2f 59 3c
       0.010147066 0.0066073756 0.011015013 0.013256034
000050 7f 4a 66 3c e3 f8 77 bb b7 0d 90 3b 64 42 f7 3b
       0.014055847 -0.0037837557 0.004396166 0.007545756
000060 2a 6a 66 bb 2d 21 39 3c aa 03 1c 3c f1 b0 b6 bb
       -0.0035158494 0.011299414 0.009522358 -0.0055752923
000070 b8 76 19 3c ff a2 03 bb 2b fb 10 3c df fb 9f bb
       0.009366684 -0.0020086167 0.008848946 -0.0048823203

enc1.1.running_mean f4 [32]
000000 55 1d 1d be cc 17 33 3e df 96 73 3e e8 1d a0 3e
       -0.1534322 0.17489547 0.23788022 0.31272817
000010 09 60 44 3e 76 89 1d 3f 69 73 a9 bd 79 9b 41 3e
       0.1917726 0.61537874 -0.08273966 0.18906964
000020 7d 89 a8 3e e9 ee aa 3e b3 dc c3 3e 17 08 a8 be
       0.32917395 0.333854 0.38254318 -0.32818672
000030 e5 01 e2 be cd 4e a8 be 7e 39 e0 be f9 2d cb be
       -0.4414207 -0.3287262 -0.43793863 -0.39683512
000040 bd a5 1d 3e 2d 92 87 be 9b a5 2f 3f 7b 93 03 be
       0.15395255 -0.2647871 0.6861207 -0.12849228
000050 9d 86 41 be e8 fe 2f 3e e7 a3 0b bf 75 49 a3 be
       -0.18899007 0.17187083 -0.5454697 -0.3189198
000060 8f d0 a4 3e 52 44 c3 3e 38 6a 4f be d2 24 5b be
       0.32190368 0.38138062 -0.20255363 -0.21400765
000070 b6 ad 86 be 93 0b fd be 4e 60 3a bf a8 52 ac 3e
       -0.26304406 -0.49422893 -0.728032 0.33656812

enc1.1.running_var f4 [32]
000000 97 cb 83 3c c1 4a de 3b c0 96 34 3d d0 47 b9 3c
       0.01608829 0.0067838137 0.04408908 0.02261725
000010 5b 01 db 3c 67 3a 35 3d 2d 26 f8 3b a7 14 37 3c
       0.026734045 0.04424515 0.0075729103 0.0111743575
000020 97 ee fb 3c 9f 65 14 3d 74 4d 00 3d 92 8b 34 3c
       0.030753417 0.036229726 0.031323865 0.011019604
000030 d8 9e 7f 3d 13 24 ad 3c 12 55 55 3d c3 0a a9 3c
       0.062407345 0.021135366 0.052083082 0.020635014
000040 c0 d4 af 3b f4 fe 2b 3c ea a4 e0 3d 4b 5f 10 3c
       0.005365938 0.010497797 0.10968955 0.008811782
000050 00 f5 c7 3c ad 13 af 3b 88 de 3f 3d f2 be 0a 3d
       0.024408817 0.0053429217 0.04684308 0.033873506
000060 39 0f ba 3c 3b b4 ad 3c ff ab 90 3c 59 72 02 3c
       0.022712337 0.021204105 0.01766014 0.007961833
000070 d9 5b d2 3c 86 3f 0c 3d 92 af b1 3d 90 86 3b 3c
       0.025678562 0.03424027 0.086760655 0.011445656

enc2.0.weight f4 [64, 32, 3, 3]
000000 7a 9b 99 bc e9 df 5b bc d8 70 c6 bd e0 6f b9 3c
       -0.018750895 -0.013420084 -0.09689492 0.022636354
000010 51 71 84 bd ed 16 d9 bc 29 44 08 3d 91 61 5c bd
       -0.06466926 -0.02650019 0.033268128 -0.053803984
000020 a2 c6 51 bd d1 66 8b 3c 0f 54 7b 3d 55 fa 6a 3c
       -0.05121482 0.0170168 0.06135946 0.01434191
000030 ce a9 21 bc 59 64 c0 3c 93 86 e8 bc cf e2 24 3c
       -0.009867145 0.02348535 -0.028384482 0.010063841
000040 c5 44 85 3d 39 a0 20 bc 5b a4 3f bd 69 bc 04 3d
       0.06507257 -0.009803825 -0.0467876 0.032406244
000050 4f 07 12 bd a5 a0 3a bd 52 cd 09 bd b2 2c 1a bd
       -0.0356515 -0.04556336 -0.033643074 -0.03764028
000060 d6 4b 6b bd 01 cd 52 bd 01 45 88 bc 59 91 e8 3b
       -0.05744537 -0.05146504 -0.016634466 0.007097405
000070 fe c8 44 3c 7c f6 6f 3d 6b 4e e2 bb 46 71 1b 3c
       0.012010811 0.058584675 -0.006906321 0.009487456
000080 5b 5f 1b 3c c7 ac 46 3c eb d7 01 3d ca f6 25 bd
       0.009483184 0.012126154 0.031700056 -0.04051856
000090 9c 64 51 bd 81 a4 18 b9 04 c3 b3 bb 23 37 94 bc
       -0.05112134 -0.00014557132 -0.005485894 -0.018092697
0000a0 91 1e 66 bd 5c 56 e4 bc 88 6d 12 bd 4a e1 70 bd
       -0.056181494 -0.02787321 -0.03574899 -0.058808602
0000b0 e4 2c 0a 3d 61 4b 83 3b 90 02 59 bc f5 ea 2e bd
       0.033734217 0.0040067886 -0.01324524 -0.04270454
0000c0 d8 03 b7 bc 2c 39 52 bc 14 04 5f 3a 01 7a 3d bc
       -0.0223407 -0.012831014 0.00085073826 -0.0115647325
0000d0 15 ba 4b 3d 1a a7 00 bd c5 a8 ed 3c f6 74 8c bc
       0.04973801 -0.03140936 0.02901114 -0.017145615
0000e0 df 3f 94 3c 24 d3 02 bb a4 64 1f 3c a7 88 81 bd
       0.018096862 -0.0019962275 0.009728584 -0.063248925
0000f0 ac 55 a9 bb a6 cd ac bc a9 d3 0c bd 9c 62 cb 3c
       -0.0051676836 -0.021094155 -0.034381542 0.024827294
000100 55 f7 0b bd 18 95 b6 bc 78 dd 30 3d 26 04 52 bb
       -0.03417142 -0.02228789 0.04317996 -0.003204593
000110 26 93 4b 3d c3 82 81 bd dc d6 f2 bb 0a c7 f7 bb
       0.04970088 -0.06323769 -0.007410867 -0.007561569
000120 e1 57 ed bc 88 e1 c3 ba 21 c6 d2 bb ea 8c 2f 3b
       -0.028972568 -0.0014944533 -0.00643231 0.0026786872
000130 d9 0a 67 bd 59 f7 52 bd c7 0a f6 bc 8d 8d 03 bd
       -0.05640683 -0.05150542 -0.030034436 -0.032117415
000140 25 4b 02 3d bc 65 97 3c 5f c4 8f bc 1e d8 a3 bc
       0.031809945 0.018481128 -0.017549692 -0.020000514
000150 10 1c 05 3d b2 f2 1b bc 5a a7 b0 bc bc b2 71 3c
       0.032497466 -0.009518312 -0.021564174 0.014752086
000160 b8 08 7f bd b1 57 b5 3c f6 95 19 bd 31 a4 0f bb
       -0.062264174 0.022136541 -0.03749653 -0.0021917934
000170 fb a9 d2 3b 9c 9b 58 bd bc 1d 3d 3c 51 f0 75 bc
       0.0064289547 -0.052882776 0.011542734 -0.015010909
000180 ff 2c 35 bc 46 cb 47 3d c0 e5 20 3d 08 19 a8 3b
       -0.011058091 0.04877784 0.039281607 0.005129937
000190 8b dc 39 3d ed 14 16 3d 85 b4 e9 bc a4 27 60 bd
       0.04537634 0.03664105 -0.028528461 -0.054725304
0001a0 53 5d 2e bd 33 28 85 3c f1 a5 15 3c da 15 ea 3c
       -0.04256947 0.01625452 0.009133802 0.028574873
0001b0 e6 9a f0 b9 f0 75 d4 3c 2f 3d 34 3d 74 95 d3 3c
       -0.00045891776 0.025935143 0.04400366 0.0258281
0001c0 51 fb e7 bc 4c ad d1 bb 7d 79 17 bb fb ad a5 3c
       -0.02831808 -0.0063988324 -0.0023113184 0.020224562
0001d0 ce 0d bb 3c 6c 21 14 bd 69 6a 26 bc 26 f2 ea bc
       0.022833731 -0.036164686 -0.010157206 -0.028679918
0001e0 0b 83 9d bc 7a 72 f0 bc dd a3 63 3c a5 a1 eb bb
       -0.019227525 -0.029351462 0.0138940485 -0.0071909004
0001f0 8d bb 7e bd ae 8b f0 bb b5 7f 52 3d bc c4 08 3d
       -0.06219058 -0.00734087 0.051391322 0.033390746
000200 4f 54 79 bd df 87 04 3d a2 41 cf bc f5 60 27 3d
       -0.06087142 0.03235614 -0.02529985 0.04086395
000210 7f b2 26 3d 9b f4 4c 3d 26 85 7f bd 3d be cd 3b
       0.04069757 0.05003796 -0.06238284 0.0062787817
000220 06 81 8f 3a e9 aa 02 bc 60 df 2c 3c 5a ca 20 3d
       0.0010948486 -0.0079753185 0.010551304 0.039255477
000230 39 5c dc 3c dd cd 38 bd 20 8a b5 3b f0 92 db 3c
       0.026899444 -0.0451182 0.0055401474 0.026803464
000240 df 19 23 bd 5e 84 1d bc 7f 73 af 3d bc 82 23 3d
       -0.039819594 -0.009614078 0.08566951 0.0399196
000250 4f 74 f1 bc c6 23 28 3d d2 cb 09 bd a5 cd 1d bc
       -0.029474406 0.04104974 -0.033641644 -0.009631549
000260 5a 39 2c 3d bf e8 0f bd a7 02 82 3d 33 c1 8e bc
       0.042046882 -0.035134073 0.06348162 -0.017426109
000270 bf a6 65 bd 18 36 a9 bc 40 f7 09 3d b2 6e 28 bd
       -0.056067225 -0.020655677 0.03368306 -0.041121192
000280 5b e4 cb 3c ef b8 b1 bc df 04 21 3d e8 b4 50 3c
       0.024889162 -0.021694629 0.039311286 0.012738444
000290 4d 5f 16 3c 74 cb 3a bd 1a 7a c6 3c 3e 2c ed bc
       0.009177995 -0.045604184 0.024228144 -0.02895176
0002a0 0e 5a 9e bc d2 e6 b3 3c 7e 80 2f 3d 77 ad 46 bb
       -0.01933005 0.02196065 0.04284715 -0.0030315795
0002b0 fc 25 1d bd fe 2f 2a 3d 16 c1 9e 3c ce 6d bb bb
       -0.038366303 0.041549675 0.01937918 -0.005719877
0002c0 8b 2e 28 bd 55 ea 1e 3c 1c 8d 5c 3d 61 c1 4d bd
       -0.04106001 0.009699424 0.05384551 -0.05023325
0002d0 87 71 c9 bb 6c 4a 8c bd 7c 67 87 b9 69 dc d9 3b
       -0.0061475667 -0.06850132 -0.00025826308 0.0066485894
0002e0 90 4a 14 bc a6 22 91 bd 18 73 cf bc 8a 45 a5 3c
       -0.00905098 -0.07086687 -0.025323436 0.02017476
0002f0 2a 13 df bb cb 21 8a 3d 6e c8 7e 3d 18 48 5f bc
       -0.0068077045 0.06744727 0.062202863 -0.013628028
000300 f5 1c 4b bd 3b 43 e4 3c 18 a2 02 3d 91 97 48 bd
       -0.049588162 0.02786409 0.031892866 -0.04897267
000310 6f 51 04 3c 57 78 d1 bc 0b 20 76 3d 36 ab 85 bc
       0.008076056 -0.025570078 0.060089152 -0.016316991
000320 d9 f2 06 bd c3 c3 b9 bc 74 6b 15 bd fb 91 b6 3c
       -0.03294644 -0.022676354 -0.03647943 0.022286406
000330 2f af f0 3c 68 83 ca bc 85 38 21 3b 71 bf 1b bc
       0.029380409 -0.024720863 0.0024600339 -0.009506092
000340 d0 ac 33 3b 92 d0 89 bd d2 a2 86 3b 2a 62 2f 3d
       0.0027416237 -0.06729235 0.004108765 0.042818226
000350 c1 69 15 3d e7 07 8f 3c ef 89 63 3d e1 ca 6b 3d
       0.036477808 0.017459823 0.055551466 0.057566527
000360 46 29 17 3d 05 04 54 3d f0 44 2e bd 11 de 21 bd
       0.036904596 0.051761646 -0.042546213 -0.03951842
000370 c2 98 2c 3d 87 e4 75 bc ce eb 8c 3c d9 48 43 3d
       0.04213787 -0.015008098 0.017202284 0.047676895
000380 1a ee c1 3c f4 d9 0c bc 64 47 42 bc 87 a9 82 bc
       0.023673106 -0.008596886 -0.011857841 -0.015949978
000390 96 a2 d4 bc 8f 0f ec 3c 38 a9 57 bd c5 50 9e 3c
       -0.025956433 0.028816013 -0.052651614 0.019325623
0003a0 28 1a 15 bd 3b 2e 13 bb 81 01 55 3c 85 ab 3e 3c
       -0.036401898 -0.0022457975 0.013000847 0.011637573
0003b0 84 bc 35 bd aa 64 78 3c a9 48 a1 bc 1e 3c 2d 3b
       -0.044369236 0.015160719 -0.019687967 0.0026433538
0003c0 3e 3b 5e bd 5f 60 5d bd e4 e5 de bc fb b3 99 3c
       -0.054255717 -0.054046985 -0.02720923 0.01876258
0003d0 34 da 20 bc d4 95 c8 bc dc ef ea bc a2 44 42 bc
       -0.009817649 -0.024485506 -0.028678827 -0.011857184
0003e0 2f 63 88 bd d3 02 1b 3d b8 1c e8 bb cb 9b f9 bc
       -0.06659543 0.03784449 -0.0070835017 -0.030469796
0003f0 2f b0 a3 3c a1 f1 1a bd c5 a2 1d 3d ad 94 0c 3d
       0.019981472 -0.03782809 0.038485307 0.034321476

enc2.0.bias f4 [64]
000000 c6 7f 2c 3c fa 4a 36 bd 51 f1 08 bd 80 64 00 3d
       0.01052851 -0.044505097 -0.033433262 0.031345844
000010 69 72 30 bc f4 3d 67 bd 00 92 4f bb 35 7a 24 3d
       -0.010769465 -0.056455567 -0.0031672716 0.04015561
000020 2b ff 5e 3c f5 2c 03 3d 55 17 06 3c 19 35 d4 3c
       0.0136106415 0.032025296 0.008184274 0.025904225
000030 80 66 44 3d 77 ac 5c 3c f5 40 b8 3c 8a 57 b5 3a
       0.047949314 0.013468853 0.022491911 0.0013835293
000040 92 15 be 3c ba 67 27 3d 98 fa 14 3c da 1b d6 3b
       0.023203645 0.040870406 0.009092949 0.006534082
000050 30 8f 1f bc 64 d7 ca 3b bc 77 2f bd d2 8e e5 bc
       -0.009738728 0.0061902273 -0.042838797 -0.028022204
000060 c1 6d 1a bd 9f ce 28 3c ba 5c bc bc a0 3e 45 3a
       -0.037702326 0.010303169 -0.022993434 0.00075242855
000070 fa a8 39 bc 66 f5 0b 3d 45 11 78 bb ae 27 fd 3c
       -0.011331791 0.034169577 -0.003785209 0.03090271
000080 a3 91 1d 3d ab 89 0f 3d 91 45 20 3d 17 02 83 bb
       0.038468968 0.0350434 0.039128844 -0.003998052
000090 aa 2f 0b bd d8 e8 47 3d 02 42 19 3d 97 3f fb bb
       -0.033981003 0.04880604 0.037416466 -0.0076674926
0000a0 30 79 ff bc d8 17 43 3d 5b 0b e4 bc bf 8d 2d 3a
       -0.031185716 0.04763016 -0.027837446 0.0006620548
0000b0 46 72 31 bd 9b f3 36 bd 70 c2 56 3d 9a c2 47 bd
       -0.04332187 -0.044665914 0.052431524 -0.04876957
0000c0 15 6c 5b bd ae 88 11 3c 06 d9 90 bc d1 6f 33 3d
       -0.053569872 0.008882685 -0.01768161 0.04380781
0000d0 ad 36 2b 3d 8c 36 04 3d a3 59 31 3d 73 67 33 bd
       0.04180019 0.032278582 0.043298375 -0.04379983
0000e0 17 05 48 bd 39 a1 64 3d 77 47 8e 3b 74 3a 61 3c
       -0.04883298 0.055817816 0.0043420154 0.0137468465
0000f0 35 d0 65 3c e7 69 d2 3c 9f 9b df 3c 78 d7 ed 3c
       0.014026691 0.025685264 0.027295886 0.029033408

enc2.1.weight f4 [64]
000000 a3 8d 7e 3f 08 4a 7f 3f fc 0c 7e 3f 9e f6 7d 3f
       0.9943487 0.9972234 0.9923856 0.9920443
000010 6e 95 7e 3f 5d 8c 7e 3f 3d 29 81 3f af 38 80 3f
       0.9944676 0.9943293 1.009071 1.0017298
000020 28 d2 7f 3f 3d 94 80 3f b4 23 80 3f fd de 7e 3f
       0.9993005 1.0045239 1.0010896 0.99559003
000030 6f 21 7c 3f 74 0e 80 3f 44 8e 7e 3f 12 1b 81 3f
       0.98488516 1.0004411 0.9943583 1.0086386
000040 9c 48 80 3f 73 78 7e 3f 86 71 80 3f 6e 05 7f 3f
       1.0022159 0.9940254 1.0034645 0.9961766
000050 5a 41 81 3f 0d 37 7e 3f 46 61 7f 3f 0a 91 7c 3f
       1.0098069 0.9930275 0.997578 0.9865881
000060 5d d0 7f 3f 76 12 80 3f ab 8c 7c 3f 76 35 80 3f
       0.9992731 1.0005634 0.9865214 1.0016315
000070 39 f7 7c 3f 2e 22 80 3f ad 83 7f 3f e2 5a 7e 3f
       0.9881473 1.0010431 0.99810296 0.99357426
000080 f1 17 80 3f 90 86 80 3f e9 6a 80 3f ff 9c 7c 3f
       1.0007306 1.0041065 1.0032626 0.9867706
000090 c2 82 7e 3f 43 05 80 3f 4a ac 7f 3f 8a 2b 7e 3f
       0.9941827 1.0001606 0.9987227 0.99285185
0000a0 49 e7 80 3f 1b 27 80 3f b9 d1 80 3f 12 cf 80 3f
       1.0070583 1.0011934 1.0064002 1.0063193
0000b0 ef e4 7f 3f b4 30 80 3f 1c f4 80 3f f5 36 80 3f
       0.999587 1.0014863 1.0074496 1.0016772
0000c0 2b c6 80 3f f5 0e 82 3f 88 62 7d 3f d7 82 80 3f
       1.0060476 1.0160815 0.9897847 1.0039929
0000d0 43 5a 80 3f 71 f5 7f 3f c8 5a 7f 3f 42 bb 7e 3f
       1.0027546 0.9998389 0.99747896 0.9950448
0000e0 10 b8 80 3f 20 11 7f 3f d3 e0 7f 3f 4e 00 83 3f
       1.0056171 0.99635506 0.9995243 1.0234468
0000f0 f3 63 7f 3f c4 f8 7b 3f 19 c3 7d 3f 62 6b 80 3f
       0.99761885 0.9842646 0.9912582 1.0032771

enc2.1.bias f4 [64]
000000 1f 83 f5 bb c8 b5 2a ba 56 90 1e bc e6 b7 f7 bb
       -0.0074924375 -0.0006512073 -0.009677967 -0.007559764
000010 9a a6 00 bc ca dd 09 bc f2 81 a4 3b 17 c4 4b bc
       -0.007852221 -0.008414695 0.0050203735 -0.012436888
000020 c4 7a ce ba c6 c5 8a bb d8 e0 91 3b 74 61 7a bb
       -0.001575314 -0.004235002 0.0044518523 -0.003820506
000030 eb 87 83 bc df cf e4 39 02 0f 65 bc 45 24 38 bb
       -0.016056022 0.00043642425 -0.013980629 -0.002809779
000040 79 ca 43 3b 19 4c 3a bb d5 81 f4 3b dc da 91 3b
       0.0029875322 -0.0028426705 0.0074617662 0.004451139
000050 3e 2d cd 3b d7 34 89 bb 9a b7 ea bb 8e 6c 60 bc
       0.006261497 -0.004187207 -0.0071630003 -0.013697756
000060 25 6e ab bb d7 c4 92 3b 5a 9f e1 3a f0 2e 47 3b
       -0.005231636 0.0044790315 0.0017213628 0.0030392967
000070 e0 b8 67 bc ed 05 71 3b fd 20 08 bb 9a bd d4 bb
       -0.014143199 0.0036777214 -0.0020771616 -0.006492329
000080 87 9c 23 3b e4 80 1f 3c 8c f9 20 bb b6 03 92 bc
       0.0024965124 0.00973532 -0.0024562804 -0.017824035
000090 f4 25 0d bc 0e d3 af bb 28 0c e3 3a 18 43 cc bb
       -0.008615006 -0.005365736 0.0017322348 -0.006233584
0000a0 ad be f5 3b 83 57 6d 3a 33 8b 90 3b a0 09 26 3c
       0.007499537 0.0009053873 0.004411125 0.010134131
0000b0 c3 d7 1c bc 61 05 8f bb ac d0 4b 3b ca 89 0a bc
       -0.009572926 -0.004364655 0.003109972 -0.008455703
0000c0 1b 07 80 3b d1 f0 a2 3a ea 11 79 bc 95 4e 56 3c
       0.003907097 0.0012431388 -0.015202025 0.013080259
0000d0 b9 f8 8f 3b f5 d0 26 3b 21 63 98 bb d6 eb 0a bc
       0.0043936637 0.0025454138 -0.004650489 -0.008479079
0000e0 32 9a 79 3a ad 1d a3 bb 9e ef c7 3b da 31 9e bb
       0.0009521573 -0.004977903 0.0061015626 -0.00482772
0000f0 8e 8f c6 3a a9 01 9c bc 7f af 31 bc a0 69 55 3b
       0.0015148984 -0.01904376 -0.010845064 0.0032564178

enc2.1.running_mean f4 [64]
000000 4f 1c 35 bf 1f 7d 39 3f ef 58 46 be 3b fe c3 3e
       -0.7074632 0.72456545 -0.19369863 0.382799
000010 a9 4d 0c 3f dd 51 e4 be 30 50 17 be eb a8 4a be
       0.54806 -0.44593707 -0.14776683 -0.19791
000020 52 28 8c 3e 04 f5 f0 3d c6 16 1c 3f 5c a6 86 be
       0.27374512 0.11765483 0.6097225 -0.26298797
000030 70 5b 63 3f 43 8a 52 3e 4f 4f 67 bf 44 d3 c8 bd
       0.888114 0.20560555 -0.9035539 -0.09805921
000040 9f 50 b8 3e 05 12 b5 3e f2 f9 1f bf bf 9a 65 3e
       0.3599901 0.3536531 -0.6249076 0.22422312
000050 a1 93 97 bf 28 f5 b7 bc 20 9e 2a bf 2b f4 55 3f
       -1.1841928 -0.022455767 -0.6664753 0.83575696
000060 80 74 99 3f 27 99 bb be 41 e0 15 be 39 1c b0 be
       1.1988678 -0.36640283 -0.14636327 -0.34396532
000070 c3 de 87 3e 27 8a 1c 3d 3f 25 84 bf d3 0e 6e bc
       0.2653714 0.03821769 -1.0323867 -0.014529902
000080 a5 a8 4d bf 4f 28 39 3f c1 a3 d6 be 51 08 1b 3d
       -0.80335456 0.7232713 -0.4192181 0.037849728
000090 2e 3d 14 be a6 e3 ba be c5 ec 26 be 4b b9 8c bf
       -0.14476463 -0.36501807 -0.16301258 -1.0994047
0000a0 42 13 2a be b4 5d f8 bd 86 76 ef bd e9 30 41 3f
       -0.16608909 -0.121272475 -0.116925284 0.75465256
0000b0 ce c2 e4 3b 2a e6 85 3d 65 a9 65 be 8b 25 a5 be
       0.0069812303 0.06538041 -0.224279 -0.32255206
0000c0 d2 5a 17 3f f9 a0 75 3b 77 b3 ad be f0 96 12 3f
       0.59122956 0.003747998 -0.33925983 0.5726156
0000d0 b8 da a6 3e 21 f8 df bd 9f 04 11 3f 54 16 e5 be
       0.32588744 -0.10935999 0.56647676 -0.44743598
0000e0 1e 39 71 bd f6 22 30 bf e4 1b 18 3f 14 56 45 be
       -0.05889236 -0.68803346 0.5941756 -0.19271117
0000f0 71 55 22 3e df d8 1c be 9f 87 b7 be 23 46 9c 3e
       0.15852906 -0.15317105 -0.35845658 0.3052226

enc2.1.running_var f4 [64]
000000 fc 81 56 3e 98 fb 5b 3f 7e 38 39 3e 3f 2c cf 3d
       0.20948023 0.85930777 0.18087956 0.10115861
000010 37 e7 a5 3e 08 3f 02 3e 4d 6d 8e 3d 9d 37 70 3e
       0.32402965 0.12719357 0.06954441 0.23458715
000020 29 e5 4e 3f 65 d0 d4 3d 50 a0 48 3e 23 3c 99 3e
       0.8081842 0.103913106 0.19592404 0.29928693
000030 7d d3 ef 3e 1f cd 90 3f c6 dc ca 3e 37 1e b5 3d
       0.4684104 1.1312598 0.39621562 0.08843654
000040 cd 17 13 3f d1 45 5e 3f f6 a4 57 3e 5b d6 b3 3f
       0.5745819 0.8682528 0.21059021 1.4049791
000050 d9 17 7a 3e 91 3a 15 3e 0c 56 38 3e 2a cc dd 3e
       0.2442316 0.14573123 0.18001574 0.43319827
000060 da 47 07 3f 56 52 34 3f bf 9d 01 3f 2a b8 44 3e
       0.5284401 0.70438135 0.50631326 0.19210878
000070 6b 5d 26 3f c7 ae 9e 3f 7d 07 6f 3f e8 ea 0c 3f
       0.64986295 1.2397088 0.933708 0.5504594
000080 58 de 3c 40 e0 fe c1 3f e5 4f 0b 3e e5 75 29 3e
       2.9510708 1.5155907 0.13604696 0.1654888
000090 0d c8 66 3e c0 19 d8 3d 51 1e c5 3f df 3f 7d 3e
       0.22537251 0.105517864 1.5399877 0.24731396
0000a0 02 f0 7b 3f 6b fa be 3f 1c f4 2b 3e 24 7f 1d 3f
       0.984131 1.4920171 0.16792339 0.61522126
0000b0 c0 43 a4 3e e1 19 e3 3d f1 5f 8d 3e 9b b3 12 3e
       0.3208294 0.110889204 0.2761226 0.14326327
0000c0 56 14 8d 3f 5c ff 81 3e e5 b3 2e 3e d6 b0 86 3f
       1.1021831 0.25390136 0.17060812 1.0522716
0000d0 a1 7a d5 3e 44 21 88 3f f5 6a 33 3e 68 3c 78 3f
       0.4169512 1.0635152 0.1752127 0.9696717
0000e0 04 48 2d 3e 11 17 3c 3e 9c ef 93 3f 70 f6 f3 3d
       0.16922003 0.18368174 1.1557498 0.119122386
0000f0 c1 ce 7b 3e 69 75 0b 3e 86 09 60 3e f8 49 50 3f
       0.24590589 0.13619007 0.21878633 0.8136287

enc3.0.weight f4 [128, 64, 3, 3]
000000 34 cd a3 3c 20 54 57 bd 1d 2a 03 bd 32 dd 6c bc
       0.01999531 -0.052570462 -0.032022584 -0.014457034
000010 b3 f8 22 bd 2e 46 16 bd 81 83 0c 3d 4b c5 51 bc
       -0.03978796 -0.036688022 0.0343051 -0.012803386
000020 f2 0f a4 bc 6b 77 00 3d 3e 4c 0a 3c 09 e7 bf 3b
       -0.020027135 0.031363886 0.008441029 0.005856399
000030 53 1c d0 bc 82 a5 8a 3b c1 92 69 3c 3a e0 1c bd
       -0.025404131 0.004231156 0.01425618 -0.038299777
000040 d6 ff 09 bd 1e 81 bc 3c 29 fa 54 3c 18 61 f5 3c
       -0.03369125 0.023010787 0.012999096 0.029953524
000050 69 be 02 bd 23 32 ec 3c df 94 28 bd 8c e5 82 bc
       -0.03191987 0.0288325 -0.0411576 -0.015978597
000060 91 93 54 bd 2e 7a 92 bb 83 cc 18 bd 70 23 79 3a
       -0.051898543 -0.0044701314 -0.037304413 0.0009503877
000070 66 ef 04 3c c4 b6 4e 3c d9 4a c6 3b 59 1e 95 bb
       0.008113718 0.012616817 0.006051403 -0.004550737
000080 8d 4b 6c 3c 6e b0 ec 3c f6 90 9d 3b 53 3b 37 bc
       0.01442231 0.028892722 0.0048085405 -0.011183578
000090 08 c3 e5 3c bc 73 74 3c b9 f3 26 bd 2e 23 b5 3c
       0.0280471 0.014920171 -0.040759776 0.022111502
0000a0 94 e4 b1 bc 9d a7 b6 3b a8 60 0d 3d 52 ca 13 bd
       -0.02171544 0.0055741803 0.034516007 -0.03608162
0000b0 0d 58 cf bb d7 21 31 3c 75 68 d2 3c c4 a7 28 bd
       -0.006327635 0.010811291 0.025684575 -0.04117562
0000c0 7d dd a6 3c 6b a4 38 bd e6 9a 79 bc 00 59 a9 bc
       0.020369286 -0.045078676 -0.015234685 -0.020672321
0000d0 d5 de 00 bd 91 c5 2b bc 6e 36 13 bd 8b e5 3d bc
       -0.03146251 -0.010484115 -0.03594058 -0.011590372
0000e0 44 91 1b 3c 6e 6d df 3c e7 31 6e bc 77 99 8e 3c
       0.009495083 0.02727386 -0.014538265 0.017407162
0000f0 47 96 8b 3c 76 d0 07 bd f0 be 70 3c 6c f2 f8 3c
       0.017039431 -0.03315779 0.014693961 0.030389033
000100 59 ff d9 bb 16 dc cd 3a 03 48 3e bd 28 8a 37 bd
       -0.0066527543 0.001570585 -0.046455394 -0.04480949
000110 13 46 07 3c 6f 7d de bb 13 47 87 bc e1 01 8c 3b
       0.008256453 -0.006789855 -0.016513383 0.004272685
000120 ef 95 8c bc a0 05 3b bc 15 4e 00 3d e2 26 f9 3c
       -0.017161338 -0.011414915 0.031324465 0.030414049
000130 5f a0 b8 3c 7a 17 c3 3b 39 97 15 bc fe f6 3f 3b
       0.022537408 0.0059537264 -0.009130293 0.0029291506
000140 f9 6d 12 3d de 83 69 bc dd df 93 3c 76 fd 08 bc
       0.03574941 -0.014252631 0.018051082 -0.008361211
000150 fb d1 e2 bc 22 e6 81 3c be 7b 0d bd a2 cf c4 bc
       -0.027688017 0.015856806 -0.034541838 -0.024024788
000160 55 e5 28 bd 72 fb 8a bb d8 49 29 3c de e0 6b 3c
       -0.041234333 -0.0042414004 0.010332547 0.014396874
000170 e8 81 1f bd c0 c4 06 bd c0 93 1d b8 d3 2d 6f bc
       -0.038942248 -0.03290248 -3.756932e-05 -0.014598328
000180 5a 99 07 3d d2 c4 41 bc 7d 8d 05 bd 1f 6e f2 bc
       0.03310523 -0.011826711 -0.032605637 -0.029593525
000190 9a 25 a7 bc ea 0b 15 bc d2 6d 92 bc c7 0e 00 bd
       -0.020403672 -0.009097079 -0.017874632 -0.031264093
0001a0 39 34 13 bc 10 a2 c9 3c bd 99 03 3c 54 c0 86 3c
       -0.008984619 0.02461341 0.0080322595 0.016449131
0001b0 d8 c6 f2 bc e4 e9 d3 3a 5d b9 db bc df 83 e4 3c
       -0.029635832 0.0016167727 -0.026821787 0.027894912
0001c0 63 c9 c5 bc c9 f5 04 3d ae 28 99 3c 7b b0 a5 bc
       -0.02414388 0.03246096 0.018696155 -0.020225754
0001d0 e0 3b ab bc c0 e2 54 bc af d7 ff bc 28 2c 6e 3b
       -0.020902574 -0.012993515 -0.031230776 0.0036342237
0001e0 a4 f7 fa bc e7 68 8c bc 4a 38 94 bc c7 40 2b 3d
       -0.030635662 -0.017139865 -0.018093247 0.041809823
0001f0 d2 21 4c bc 87 4c ef 3c f9 6c ab bc d4 2a c5 3c
       -0.012459235 0.029211296 -0.020925986 0.024068274
000200 7b 33 85 bc 03 13 bd 3c bc 12 26 3d 6c 45 ad 3c
       -0.0162599 0.023080355 0.04054521 0.021151267
000210 65 5d 0e bc 03 86 2d 3c 78 5d 14 3d d1 f8 2c bb
       -0.008689259 0.010591033 0.03622195 -0.0026393423
000220 1a 2d 19 bc 3f 15 2f bc d8 db 22 3d 47 45 a1 bc
       -0.009349132 -0.010686218 0.03976044 -0.019686354
000230 5b ad 9c 3c 3a 80 b9 bc b9 b2 61 bc d0 f1 cc bb
       0.019125631 -0.022644151 -0.013775521 -0.0062544122
000240 91 e9 a1 3c fb 72 24 bd 0f 5d 37 bc 46 b7 15 bd
       0.019764693 -0.040148716 -0.0111916205 -0.036551736
000250 ca 23 f9 3c 8d d0 7b 3c e6 ff 30 bd 17 86 2c bd
       0.030412573 0.015369547 -0.043212794 -0.042120066
000260 11 09 00 3c 08 9b 39 3b eb 67 ff 3a cc dd 2c bd
       0.007814662 0.0028321166 0.0019485926 -0.04220371
000270 ae 4e 33 bd c6 57 6d bc b9 db a3 3c ea fe e4 bc
       -0.043776207 -0.014486259 0.020002233 -0.027953584
000280 78 22 1a 3d 40 59 b1 bc 34 22 57 bc 86 f0 bc 3c
       0.03763053 -0.021649003 -0.013130713 0.02306391
000290 64 12 de 3a d9 5b a1 bc 1d 08 99 3c d8 38 e5 3c
       0.0016942737 -0.019697117 0.018680627 0.027981207
0002a0 20 0c 74 3a f9 b1 8a 3c a9 02 c4 3b 87 11 07 bc
       0.0009309668 0.016930567 0.0059817624 -0.008243925
0002b0 00 96 17 bd 85 cd 11 bb a4 79 e9 bb 21 7f da 3c
       -0.037008286 -0.0022247743 -0.0071250964 0.026671948
0002c0 66 f1 15 bd ac b4 95 bc 0b 5b 26 bd 2b ee 0f 3c
       -0.03660717 -0.018274628 -0.04061417 0.008784811
0002d0 a1 f7 0d bd c1 74 4d 3c 95 6a 06 bd e6 17 83 3c
       -0.034659985 0.012540043 -0.03281649 0.016002607
0002e0 75 e4 12 bd ae fa 77 bc 56 c6 02 bd 6d 5b 0a 3d
       -0.035862405 -0.01513545 -0.03192743 0.033778597
0002f0 6f 94 dd 3c d9 dd 2f bd b1 36 e0 bb 95 ad 6e 3b
       0.027048318 -0.04293618 -0.006842457 0.003641938
000300 00 08 1d 3d d6 7f ad 3c 93 15 44 bc 30 cc 43 bc
       0.038337708 0.021179121 -0.011968034 -0.011950538
000310 8b 40 93 bc 20 99 2c bc a1 cb 0a 3d 4c af 35 bc
       -0.017975112 -0.010534555 0.033885602 -0.011089157
000320 95 d9 34 3b cb 0a 3f 3c b3 f0 2f 3b a6 8a 69 3c
       0.002759551 0.011660288 0.0026846349 0.014254248
000330 e0 5c b8 3b aa 0c 28 3d 98 0c 2c 3d e8 2c f6 3c
       0.005626306 0.041027702 0.042004198 0.03005071
000340 b1 45 0c 3d 3e ad a7 3c 24 fe 0b bd 2e e6 0d 3d
       0.03424615 0.02046835 -0.034177914 0.034643345
000350 11 45 b6 bc 70 69 2d 3c 23 43 d6 3c 12 06 19 bd
       -0.02224973 0.01058422 0.02615506 -0.037359305
000360 f6 7c 79 bc f7 4e ae bc 06 01 7c bc dd 1e 90 bc
       -0.015227547 -0.021277888 -0.015381103 -0.017592842
000370 a1 fb e7 bc ea 4b 8a bb 6a e5 ed 3c 1a 90 a3 3c
       -0.028318228 -0.0042204754 0.029040057 0.019966174
000380 65 f7 03 3d 9e a3 d2 3c 01 db 4f bc 5c 33 bd 3c
       0.032218356 0.025712784 -0.012686492 0.02309578
000390 b6 d3 1e 3d 1e ab 01 bd 42 15 b1 3c 0c 43 b5 3c
       0.038776122 -0.03165733 0.021616582 0.022126697
0003a0 98 09 b7 39 67 9f 0d 3d 5d 99 b1 3b 1d ac e0 3c
       0.00034911628 0.034575846 0.0054198937 0.02742582
0003b0 13 d3 20 bd 0f 15 6c bc af a3 54 bb b4 8f 1d bd
       -0.039263796 -0.014409318 -0.0032446196 -0.038467124
0003c0 77 02 63 bc a1 0a cb bc 07 5a e5 bc 64 0b a5 3c
       -0.013855568 -0.024785342 -0.02799703 0.020147033
0003d0 c8 b3 81 3c 4c 30 22 bd a5 b9 d8 3b 32 1f 72 3c
       0.015832797 -0.03959684 0.0066139274 0.014777945
0003e0 75 b4 aa 3c d6 8a a3 3a a9 29 03 bd a2 77 f6 3b
       0.020838002 0.001247729 -0.032022152 0.0075215856
0003f0 82 fd d1 bb c1 0b fa 3c c4 9b 13 3d 53 55 18 bc
       -0.0064083943 0.030523183 0.03603722 -0.009297687

enc3.0.bias f4 [128]
000000 09 df 5b b8 8c 9d fc bc e5 7c 2a bd 07 55 9a bc
       -5.2421386e-05 -0.030836843 -0.041623015 -0.018839372
000010 36 7d 0e bc 42 22 bb bc 8c f5 08 3d 0b 0f ed 3b
       -0.008696845 -0.022843484 0.033437297 0.0072344593
000020 f9 72 fb 3c ab 67 c1 3b d7 2d 98 3c b4 2a 29 bd
       0.030694472 0.0059022508 0.018576546 -0.04130049
000030 30 fc e3 3c 2d 07 8e bc 80 98 e8 3c 04 c1 6f 3c
       0.027830213 -0.017337406 0.02839303 0.014633421
000040 1a 02 86 bc 95 bc 3e 3b ab 0e 22 3d 7d be 01 3d
       -0.016358424 0.0029104103 0.03956477 0.031675804
000050 a4 06 09 bd 8b 83 a0 bc a6 81 10 bd a3 e0 2f 3c
       -0.0334536 -0.019593975 -0.035279892 0.01073471
000060 90 1d 06 bd f9 2f 0a bd 5d e4 02 bc ee 8b 2d bc
       -0.032743037 -0.033737157 -0.007989016 -0.010592444
000070 48 bd 95 bc f0 21 e3 bb d2 75 d8 bc 6e 70 d9 bc
       -0.018278733 -0.006931536 -0.026423369 -0.026542868
000080 0e e4 64 bc 9b a7 bf bc 8d 32 2e 3c 46 a8 a1 3b
       -0.013970388 -0.02339535 0.010632169 0.00493339
000090 39 8a 46 3c 98 08 da bc 50 41 92 bc 4b e3 0d 3b
       0.012117916 -0.026615426 -0.017853409 0.002165037
0000a0 1d 4b 22 3d b0 5c 24 bd 54 09 08 bd e3 18 c5 bc
       0.039622415 -0.040127456 -0.03321202 -0.024059718
0000b0 f3 17 00 3d 43 b6 67 3c d7 7c 20 3d 23 36 d9 bc
       0.03127284 0.014142576 0.039181557 -0.026515072
0000c0 7f 9f 30 bb c9 b5 02 3d 09 08 18 bd ec c1 25 bd
       -0.0026950536 0.031911645 -0.037117038 -0.04046814
0000d0 ee 92 1a 3d b7 f5 9f bc 4c da 29 3d cf 80 ad 3c
       0.03773778 -0.019526346 0.04146795 0.021179585
0000e0 be 63 25 bd a3 44 c2 3a d1 b3 e7 bc 01 4b 39 bc
       -0.040378325 0.0014821481 -0.028283985 -0.011309386
0000f0 00 24 a8 3c cb ab 32 3c a0 be 01 3d b2 82 6d 3b
       0.020524979 0.010905216 0.031675935 0.003624123
000100 43 1f 4d bc e8 70 03 3b d9 69 da bc a9 f7 9a 3c
       -0.01251966 0.002005631 -0.0266618 0.018916922
000110 17 fc 18 bc 71 37 59 bc fd 1a 14 3d 0c 71 a4 bc
       -0.009337447 -0.013257847 0.03615855 -0.020073436
000120 c2 e4 80 3b e2 91 0f bd 08 ba b0 bb a4 2c b8 3b
       0.00393352 -0.035051234 -0.0053932704 0.005620556
000130 4d 79 c6 3c 32 21 f3 3c b7 3a e5 ba 20 0d 07 bd
       0.024227763 0.029678915 -0.0017488812 -0.0329715
000140 b0 f1 88 3b a0 a0 bc bc c0 51 1b 3c 8a 16 1a 3c
       0.004179202 -0.02302581 0.00947994 0.009404788
000150 34 6b 08 3c 7d 56 8b bb 1e dc e0 3c 7c 8e 7b bc
       0.0083263405 -0.0042522536 0.02744871 -0.015353795
000160 f9 37 22 3b 0b 49 eb 3c 5d 3d 28 bd c9 c5 d4 3c
       0.00247526 0.028721353 -0.041074146 0.025973218
000170 7e 62 6f bc ca c4 f2 3c fb 66 de bc ac 64 c5 bb
       -0.014610885 0.029634852 -0.027148714 -0.006023964
000180 41 27 f3 3c 8b 36 95 bc 6b e0 99 3c 3d f5 ae bc
       0.029681804 -0.018214485 0.018783769 -0.021357173
000190 2a 2c 28 3d 37 c3 95 3c d7 8d 2a bd 29 03 bc 3c
       0.041057743 0.018281562 -0.041639175 0.022950726
0001a0 61 10 d2 bb 1c d2 7c 3c 51 1e 26 bb de a3 25 bd
       -0.006410644 0.015430953 -0.002534766 -0.04043948
0001b0 53 79 bb bc 56 4f be 3c af 79 29 3d e1 f8 19 3d
       -0.022885 0.02323119 0.041375812 0.037590865
0001c0 9f ed 92 bc ee 8d fc 3c 50 ab 90 3c af 7b 82 3a
       -0.017935572 0.030829396 0.017659813 0.0009955073
0001d0 6a 8a e3 3c 54 c1 f4 bc 1f eb ec 3b 76 40 00 3d
       0.027775962 -0.029877342 0.007230177 0.031311475
0001e0 59 df 39 3b 48 26 76 bc 28 73 90 3c 1d ae 5e 3c
       0.0028361885 -0.015023775 0.017633036 0.0135913165
0001f0 55 42 92 bc 89 32 46 3c 37 ae 11 bd ec 54 b6 3b
       -0.017853895 0.012097009 -0.035566535 0.0055643227

enc3.1.weight f4 [128]
000000 67 79 7f 3f 9e a8 7d 3f 86 7f 7f 3f 9e 63 7e 3f
       0.9979462 0.99085414 0.9980396 0.99370754
000010 e4 32 7f 3f 7b 26 80 3f ae 8e 80 3f 68 53 7f 3f
       0.9968703 1.0011743 1.0043542 0.9973664
000020 a1 b6 81 3f b5 0a 81 3f 33 7a 7d 3f 99 05 7f 3f
       1.0133859 1.0081393 0.99014586 0.99617916
000030 b5 b2 80 3f ab 89 83 3f 42 43 81 3f 58 95 7f 3f
       1.0054537 1.0276388 1.009865 0.99837255
000040 67 78 81 3f de b4 82 3f 43 51 81 3f 2e 61 7d 3f
       1.0114869 1.0211446 1.0102924 0.9897641
000050 63 02 7e 3f 64 e1 80 3f 14 ef 7e 3f ef 0c 83 3f
       0.9922239 1.0068784 0.99583554 1.0238322
000060 b2 19 81 3f 10 ed 80 3f 3d fb 7e 3f 8e a3 80 3f
       1.0085967 1.0072346 0.9960211 1.0049913
000070 a8 a3 7f 3f a9 5f 80 3f 11 d3 7e 3f b6 c3 7f 3f
       0.99859095 1.0029193 0.9954081 0.99908006
000080 8f b8 80 3f 49 01 81 3f 59 4f 80 3f f3 6c 7f 3f
       1.0056323 1.0078517 1.0024215 0.9977562
000090 4b ba 80 3f 08 68 83 3f 1f a6 80 3f 3f 1d 80 3f
       1.0056852 1.0266123 1.0050696 1.0008925
0000a0 6e 22 80 3f e4 49 7e 3f 09 ab 81 3f d9 8b 7e 3f
       1.0010507 0.993315 1.0130321 0.9943214
0000b0 25 88 82 3f 32 db 81 3f e9 1a 7f 3f 99 ef 82 3f
       1.0197798 1.0145018 0.99650437 1.0229369
0000c0 c8 62 7f 3f 06 89 81 3f f2 41 80 3f df 1e 82 3f
       0.99760103 1.0119941 1.0020125 1.0165671
0000d0 c9 c1 7f 3f 9a 6c 82 3f 18 45 7d 3f 52 c3 7e 3f
       0.9990507 1.0189393 0.98933554 0.99516785
0000e0 7a 29 7f 3f 2c fb 80 3f 29 74 7f 3f 34 90 81 3f
       0.99672663 1.0076652 0.9978662 1.0122132
0000f0 3f e5 7f 3f b9 90 80 3f 32 d2 80 3f 09 6b 81 3f
       0.99959177 1.0044166 1.0064147 1.011079
000100 49 25 7e 3f 4c 63 7c 3f 03 6a 7f 3f d8 d6 80 3f
       0.9927564 0.98589015 0.99771136 1.0065565
000110 df 7b 86 3f e8 c0 7f 3f 42 72 7f 3f 41 e4 81 3f
       1.0506552 0.99903727 0.9978372 1.0147783
000120 74 17 80 3f 9c 76 81 3f 77 a9 81 3f 42 62 80 3f
       1.0007157 1.0114322 1.0129842 1.0029986
000130 80 05 7f 3f cb 6e 81 3f e6 1b 7e 3f ac c1 7e 3f
       0.9961777 1.0111936 0.9926132 0.9951427
000140 bf 14 81 3f c7 26 80 3f 63 64 7e 3f 6c 7b 7e 3f
       1.0084456 1.0011834 0.9937193 0.99407077
000150 1c a3 81 3f 4c 06 7f 3f 0e 65 80 3f 68 fc 7e 3f
       1.0127902 0.99618983 1.003084 0.9960389
000160 fd 85 81 3f 49 82 83 3f 55 95 7f 3f c1 0c 81 3f
       1.0119015 1.0274135 0.9983724 1.0082017
000170 1c 01 80 3f 6f 1c 7e 3f 05 46 80 3f ac 8e 80 3f
       1.0000339 0.99262136 1.0021368 1.004354
000180 d0 a9 7d 3f 20 80 7f 3f f6 0a 80 3f 78 0d 82 3f
       0.9908724 0.9980488 1.0003345 1.016036
000190 b3 a4 80 3f 12 d8 7e 3f 81 05 80 3f f9 7a 80 3f
       1.0050262 0.9954845 1.000168 1.0037528
0001a0 05 dd 81 3f 58 bf 7d 3f b9 ec 7e 3f c7 c4 7e 3f
       1.0145575 0.9912009 0.9957996 0.9951901
0001b0 43 38 7f 3f 6a 55 80 3f 9c 7e 81 3f e0 66 7f 3f
       0.99695224 1.0026066 1.0116763 0.9976635
0001c0 76 05 80 3f b4 ec 80 3f cf c4 7e 3f f6 72 81 3f
       1.0001667 1.0072236 0.99519056 1.0113208
0001d0 05 7b 7e 3f 07 37 7f 3f 55 cb 82 3f 96 17 7f 3f
       0.9940646 0.9969334 1.0218302 0.99645364
0001e0 6e 42 7f 3f ff a6 80 3f 54 cf 7e 3f aa c2 80 3f
       0.9971074 1.0050963 0.9953511 1.0059407
0001f0 3b 0f 80 3f bd 9d 7d 3f 8a 6a 7f 3f 19 f9 85 3f
       1.0004648 0.99068815 0.9977194 1.0466644

enc3.1.bias f4 [128]
000000 2d 74 d3 b9 71 46 2f bc 77 66 b5 bb a2 0b a2 ba
       -0.00040331614 -0.010697947 -0.0055358964 -0.0012363086
000010 29 bc 8f bc 95 87 f0 39 c2 f9 1c bb e3 92 7d bb
       -0.017545776 0.00045877384 -0.0023952578 -0.0038692288
000020 66 9c 57 3c 68 6d cb 3b 06 d6 e5 bb e2 30 e6 3b
       0.013159847 0.0062081106 -0.007014039 0.0070248703
000030 44 f4 f5 ba eb 28 c3 bc fd 31 de 3b fd f0 9e 3b
       -0.0018764813 -0.023823222 0.0067808614 0.0048505054
000040 87 a3 e2 bc c6 1e b8 3b 62 40 1e 3c a8 9b 07 bc
       -0.027665867 0.005618903 0.009658905 -0.008276857
000050 92 83 2a bc 41 fc 6c bc 60 d6 ac 37 8c fc 86 3b
       -0.010407345 -0.014464439 2.0603824e-05 0.0041194614
000060 c1 07 1b 3c 94 b7 9b 3b 0c f3 69 bc bc 49 d9 3b
       0.009462298 0.004752109 -0.014279138 0.0066311043
000070 1a 94 ec ba 57 5e 0e 3b 33 19 07 bc 64 77 d8 ba
       -0.0018049509 0.0021723711 -0.008245754 -0.0016515073
000080 81 46 94 3b 33 8b 86 bc 76 ed 82 3b 46 1b d3 ba
       0.0045250063 -0.016423797 0.0039955927 -0.001610615
000090 1b 42 b9 3b 85 c9 36 bc 98 d0 5e bb 27 48 96 3a
       0.0056536323 -0.011156444 -0.0033998843 0.0011465595
0000a0 b0 6d ec bc 9d aa 06 bc 9c 5a a1 3b 45 c6 b6 bb
       -0.028860897 -0.008219388 0.0049241316 -0.005577835
0000b0 be 90 7f bc 20 62 23 bd 28 f5 a5 bb 2f 5c 37 3b
       -0.015598474 -0.0398885 -0.0050646253 0.002797853
0000c0 d7 c6 93 bb 2d 8f 09 3c 33 c3 72 bc 3b e1 bc 3b
       -0.0045097875 0.008395952 -0.014817047 0.0057641543
0000d0 4c ef d9 ba 7b 8a e8 3b 2b 11 65 bc 21 72 02 bc
       -0.0016627102 0.0070965863 -0.013981144 -0.007961781
0000e0 8a 06 e2 ba 43 f4 cb bb bb 89 9b 38 00 f0 a4 3b
       -0.001724438 -0.0062241866 7.41663e-05 0.005033493
0000f0 22 7c 45 3b ec d2 2f bc 01 22 d0 ba 62 d0 33 3c
       0.0030133803 -0.01073144 -0.0015879275 0.010974975
000100 85 3f 1f bc 03 52 39 bc 17 84 6e 3b 4d ad 43 bc
       -0.009719734 -0.011311057 0.003639465 -0.011943174
000110 a3 93 09 bd 6c 45 9c 3a c6 cd 75 ba ab f2 04 3b
       -0.033588063 0.0011922545 -0.0009376671 0.0020286243
000120 f7 cb 09 3c c1 9f 9d 3c d9 00 4c 3b 4a 4e 64 b9
       0.008410445 0.019241216 0.0031128435 -0.0002177294
000130 60 0e 85 3b ee 36 14 bc 94 ac c9 bb 6c 29 d2 bb
       0.0040605515 -0.009046299 -0.006154606 -0.0064136293
000140 d0 f7 cd bb c0 7c ae bb 24 6b dc bb ba a8 de bb
       -0.006285645 -0.00532493 -0.0067266393 -0.006795016
000150 f7 98 44 3c 0c 99 88 bc 37 be af bb 80 54 aa bb
       0.01199936 -0.016674541 -0.0053632515 -0.0051980615
000160 10 3e 3a bb 87 7a 71 3c e1 6c 40 bb a8 49 18 3c
       -0.002841834 0.014738685 -0.0029361772 0.009294905
000170 8c dd ae 3b b2 3a 2b bc a4 5b 6e 3a fe d7 f9 bb
       0.005336469 -0.010451006 0.0009092635 -0.007624625
000180 be 30 3d bc d0 de 54 3c aa 62 05 bc 25 83 0e 3c
       -0.011547266 0.012992576 -0.008141199 0.0086982595
000190 54 9f a5 bc e6 b0 0b ba fe 6a 5e 3b 17 31 09 ba
       -0.020217575 -0.0005328789 0.0033938284 -0.000523345
0001a0 e1 0c 65 3c d8 f0 9e bb f3 d9 72 bc 0d 98 d1 3b
       0.013980121 -0.004850488 -0.014822471 0.0063962997
0001b0 56 4e 79 bb dd df 3c 3b 1b 39 8c 3b 26 7f 2e ba
       -0.0038041077 0.0028819956 0.0042792684 -0.000665652
0001c0 4a 5d 83 bb 61 16 d8 3b 50 a7 36 bb 1c be 59 3c
       -0.0040089237 0.0065944646 -0.0027870722 0.0132899545
0001d0 d6 cf 9b 3b 4d d0 d0 ba c7 52 0a 3c 63 6a 38 bb
       0.0047550006 -0.0015931219 0.008442587 -0.0028139583
0001e0 45 25 ea bb b1 31 05 3b 45 80 a1 bb a7 c1 41 3b
       -0.007145556 0.0020323808 -0.004928621 0.0029564889
0001f0 9f 26 a6 ba ff 69 42 bc f1 2c 9f 3a 20 76 b1 3c
       -0.0012676305 -0.011866092 0.0012144131 0.021662772

enc3.1.running_mean f4 [128]
000000 e0 2a 9e bf 17 b5 08 bf 23 a9 bd bf 8b 1e 9e bd
       -1.2356834 -0.5340132 -1.4817241 -0.07720669
000010 c3 3b 17 3f a4 16 57 be 8c 67 5f bf 6b 1e 08 bf
       0.59075564 -0.2100473 -0.87267375 -0.53171414
000020 0d 45 7f bf cb e1 c5 bd e5 06 1d 3f db 8b 15 3f
       -0.9971474 -0.09662207 0.61338645 0.5841653
000030 eb 5f 10 3e 98 1c 64 bf 10 a9 86 3f f3 0e 44 bf
       0.1409909 -0.8910613 1.0520344 -0.7658531
000040 0e 3c 92 bf f3 89 26 bf d3 4f b4 bf f2 20 7b 3f
       -1.1424577 -0.65054244 -1.408686 0.98097146
000050 38 23 c7 3d 60 0d 54 bd 87 67 52 be 87 13 31 3f
       0.09723514 -0.051770568 -0.20547305 0.6917042
000060 3c 9f c0 bf f8 94 9c bd 22 8b 69 be a6 2e 96 3f
       -1.5048594 -0.07645601 -0.22806981 1.1732986
000070 ef 25 92 bf 92 d4 a3 3f 6f ae 9b 3f 8c 7f f8 3e
       -1.1417826 1.2799246 1.2162608 0.4853481
000080 40 75 4e be 1a a0 84 be 7e 3e 3c be 8f 56 2c bf
       -0.20161915 -0.25903398 -0.18383214 -0.6731958
000090 49 b1 d5 be 81 b2 4c be b0 1c 9f be 13 46 35 bf
       -0.4173682 -0.19989969 -0.31076574 -0.7081005
0000a0 e7 6c cb be 0d a2 cf 3e 53 75 1a 3e e5 13 44 3f
       -0.39731523 0.40553322 0.15083818 0.76592857
0000b0 3a 96 0a bf 6e fe 88 bf 9a ce ed 3e 25 cb cd bf
       -0.5413548 -1.0702646 0.46446687 -1.607762
0000c0 d4 1b 65 3e 86 02 8f be 9b e9 85 3f 23 f9 c0 bf
       0.22373897 -0.27931613 1.0461916 -1.507603
0000d0 20 21 e0 be a6 69 29 3e 05 41 80 3e e0 24 06 bf
       -0.43775272 0.16544208 0.25049606 -0.52400017
0000e0 7b 26 f5 be e2 e6 43 bf ea c9 c7 be bf 0f 3a be
       -0.4788092 -0.76524174 -0.39021236 -0.18170069
0000f0 ca 2d 25 bf 0f bb fc 3e b2 d9 10 bf f9 11 92 bf
       -0.64522994 0.49361464 -0.56582177 -1.1411735
000100 7c 16 cb be 03 63 f3 3e 5e 0a 31 bf b4 39 d2 3d
       -0.39665592 0.47536477 -0.69156444 0.10264912
000110 0f 8f 41 bf d7 ed 88 bf 8a 93 e8 bf 87 a6 ee be
       -0.75608915 -1.0697583 -1.8170025 -0.46611425
000120 bb 4b 23 bf 09 99 1a 3e b7 a5 3c be 81 db 17 3f
       -0.6378743 0.15097441 -0.1842259 0.5931931
000130 17 1f 3c 3e 10 c1 51 bf f3 5f 45 3e b5 ea 05 bf
       0.18371235 -0.81935215 0.19274883 -0.5231126
000140 34 2c 98 bf 5b 43 59 3f 16 14 a9 bf 5d 8a 9c 3c
       -1.188849 0.848684 -1.3209255 0.019108946
000150 7f 5e 9f bf 74 62 83 bf 59 58 4d bd 24 ad 65 bc
       -1.2450713 -1.026442 -0.050133083 -0.014018331
000160 9a b7 8a be bc d9 0e 3e e7 85 f0 bd 2c 62 00 bf
       -0.27093202 0.13950247 -0.1174429 -0.501498
000170 00 7f cf 3e 3c 07 df 3e a1 43 74 be 79 bb 13 3e
       0.4052658 0.43560207 -0.23853923 0.14426984
000180 a1 94 3e 3f 71 d2 01 bf 78 e7 45 3f da 48 04 c0
       0.7444554 -0.50711733 0.7730632 -2.0669465
000190 66 96 33 bf 42 68 26 bd a7 72 93 bb e3 72 19 3f
       -0.70151365 -0.04062677 -0.0044997516 0.5994093
0001a0 65 a1 66 bf e0 97 5e 3f d8 d3 d8 be 6f c1 a7 3e
       -0.9009002 0.8695049 -0.42349124 0.32764766
0001b0 e1 93 5b 3f 6a 12 06 bf 58 93 31 bf 12 3e a0 be
       0.8577252 -0.5237185 -0.69365454 -0.31297356
0001c0 79 bb 50 3f 18 d4 cb 3e 18 43 44 3f 0e ac 10 40
       0.8153606 0.39810252 0.76664877 2.2605014
0001d0 bb 45 09 3f 75 88 37 bf 0c ed d2 3d 61 53 08 3f
       0.53622025 -0.7169259 0.10299119 0.53252226
0001e0 d2 75 00 3f bb 76 02 c0 2f 84 98 3e a8 01 75 bf
       0.5017978 -2.0384967 0.29788348 -0.9570565
0001f0 c7 4e 4e 3f 45 43 d1 bb 12 c8 23 3f 39 45 1a bf
       0.80588955 -0.006386193 0.6397716 -0.60261875
